…
50/50 [==============================] - ETA: 0s - loss: 0.3664 - accuracy: 0.9040
50/50 [==============================] - 13s 265ms/step - loss: 0.3664 - accuracy: 0.9040
Accuracy history: [0.5839999914169312, 0.5839999914169312, 0.5839999914169312, 0.5839999914169312, 0.5960000157356262, 0.6880000233650208, 0.7960000038146973, 0.8159999847412109, 0.8519999980926514, 0.9039999842643738]
Model summary:
Model: "sequential_100"
_________________________________________________________________
Layer (type)                 Output Shape              Param #   
=================================================================
conv2d_121 (Conv2D)          (None, 598, 598, 4)       40        
_________________________________________________________________
conv2d_122 (Conv2D)          (None, 596, 596, 4)       148       
_________________________________________________________________
max_pooling2d_101 (MaxPoolin (None, 298, 298, 4)       0         
_________________________________________________________________
conv2d_123 (Conv2D)          (None, 296, 296, 4)       148       
_________________________________________________________________
max_pooling2d_102 (MaxPoolin (None, 148, 148, 4)       0         
_________________________________________________________________
conv2d_124 (Conv2D)          (None, 146, 146, 4)       148       
_________________________________________________________________
max_pooling2d_103 (MaxPoolin (None, 73, 73, 4)         0         
_________________________________________________________________
conv2d_125 (Conv2D)          (None, 71, 71, 4)         148       
_________________________________________________________________
max_pooling2d_104 (MaxPoolin (None, 35, 35, 4)         0         
_________________________________________________________________
flatten_20 (Flatten)         (None, 4900)              0         
_________________________________________________________________
dense_117 (Dense)            (None, 8)                 39208     
_________________________________________________________________
dropout_97 (Dropout)         (None, 8)                 0         
_________________________________________________________________
dense_118 (Dense)            (None, 8)                 72        
_________________________________________________________________
dropout_98 (Dropout)         (None, 8)                 0         
_________________________________________________________________
dense_119 (Dense)            (None, 8)                 72        
_________________________________________________________________
dropout_99 (Dropout)         (None, 8)                 0         
_________________________________________________________________
dense_120 (Dense)            (None, 1)                 9         
=================================================================
Total params: 39,993
Trainable params: 39,993
Non-trainable params: 0
_________________________________________________________________
None
[[… 