…
50/50 [==============================] - ETA: 0s - loss: 0.1688 - accuracy: 0.9400
50/50 [==============================] - 14s 287ms/step - loss: 0.1688 - accuracy: 0.9400
Accuracy history: [0.5799999833106995, 0.6000000238418579, 0.6679999828338623, 0.7039999961853027, 0.7200000286102295, 0.7919999957084656, 0.8360000252723694, 0.8679999709129333, 0.9160000085830688, 0.9399999976158142]
Model summary:
Model: "sequential"
_________________________________________________________________
Layer (type)                 Output Shape              Param #   
=================================================================
conv2d (Conv2D)              (None, 598, 598, 4)       40        
_________________________________________________________________
conv2d_1 (Conv2D)            (None, 596, 596, 4)       148       
_________________________________________________________________
max_pooling2d (MaxPooling2D) (None, 298, 298, 4)       0         
_________________________________________________________________
conv2d_2 (Conv2D)            (None, 296, 296, 4)       148       
_________________________________________________________________
max_pooling2d_1 (MaxPooling2 (None, 148, 148, 4)       0         
_________________________________________________________________
conv2d_3 (Conv2D)            (None, 146, 146, 4)       148       
_________________________________________________________________
max_pooling2d_2 (MaxPooling2 (None, 73, 73, 4)         0         
_________________________________________________________________
flatten (Flatten)            (None, 21316)             0         
_________________________________________________________________
dense (Dense)                (None, 32)                682144    
_________________________________________________________________
dropout (Dropout)            (None, 32)                0         
_________________________________________________________________
dense_1 (Dense)              (None, 32)                1056      
_________________________________________________________________
dropout_1 (Dropout)          (None, 32)                0         
_________________________________________________________________
dense_2 (Dense)              (None, 32)                1056      
_________________________________________________________________
dropout_2 (Dropout)          (None, 32)                0         
_________________________________________________________________
dense_3 (Dense)              (None, 32)                1056      
_________________________________________________________________
dropout_3 (Dropout)          (None, 32)                0         
_________________________________________________________________
dense_4 (Dense)              (None, 1)                 33        
=================================================================
Total params: 685,829
Trainable params: 685,829
Non-trainable params: 0
_________________________________________________________________
None
[[… 